…
    checkpoint_print: 200
    F_feature_layer: 34
    F_weights: 1.0
    F_lossfn_type: l1
    F_use_input_norm: True
    F_use_range_norm: False
    G_optimizer_betas: [0.9, 0.999]
    G_scheduler_restart_weights: 1
  ]
  opt_path: options/swinir/train_swinir_sr_lightweight.json
  is_train: True
  merge_bn: False
  merge_bn_startpoint: -1
  find_unused_parameters: True
  use_static_graph: False
  num_gpu: 8
  rank: 0
  world_size: 1

22-11-05 02:21:07.385 : Number of train images: 3,550, iters: 222
22-11-05 02:21:10.452 : 
Networks name: SwinIR
Params number: 135162
Net structure:
SwinIR(
  (conv_first): Conv2d(3, 30, kernel_size=(3, 3), stride=(1, 1), padding=(1, 1))
  (patch_embed): PatchEmbed(
    (norm): LayerNorm((30,), eps=1e-05, elementwise_affine=True)
  )
  (patch_unembed): PatchUnEmbed()
  (pos_drop): Dropout(p=0.0, inplace=False)
  (layers): ModuleList(
    (0): RSTB(
      (residual_group): BasicLayer(
        dim=30, input_resolution=(64, 64), depth=6
        (blocks): ModuleList(
          (0): SwinTransformerBlock(
            dim=30, input_resolution=(64, 64), num_heads=6, window_size=8, shift_size=0, mlp_ratio=2
            (norm1): LayerNorm((30,), eps=1e-05, elementwise_affine=True)
            (attn): WindowAttention(
              dim=30, window_size=(8, 8), num_heads=6
              (qkv): Linear(in_features=30, out_features=90, bias=True)
              (attn_drop): Dropout(p=0.0, inplace=False)
              (proj): Linear(in_features=30, out_features=30, bias=True)
              (proj_drop): Dropout(p=0.0, inplace=False)
              (softmax): Softmax(dim=-1)
            )
            (drop_path): Identity()
            (norm2): LayerNorm((30,), eps=1e-05, elementwise_affine=True)
            (mlp): Mlp(
              (fc1): Linear(in_features=30, out_features=60, bias=True)
              (act): GELU(approximate=none)
              (fc2): Linear(in_features=60, out_features=30, bias=True)
              (drop): Dropout(p=0.0, inplace=False)
            )
          )
          (1): SwinTransformerBlock(
            dim=30, input_resolution=(64, 64), num_heads=6, window_size=8, shift_size=4, mlp_ratio=2
            (norm1): LayerNorm((30,), eps=1e-05, elementwise_affine=True)
            (attn): WindowAttention(
              dim=30, window_size=(8, 8), num_heads=6
              (qkv): Linear(in_features=30, out_features=90, bias=True)
              (attn_drop): Dropout(p=0.0, inplace=False)
              (proj): Linear(in_features=30, out_features=30, bias=True)
              (proj_drop): Dropout(p=0.0, inplace=False)
              (softmax): Softmax(dim=-1)
            )
            (drop_path): DropPath()
            (norm2): LayerNorm((30,), eps=1e-05, elementwise_affine=True)
            (mlp): Mlp(
              (fc1): Linear(in_features=30, out_features=60, bias=True)
              (act): GELU(approximate=none)
              (fc2): Linear(in_features=60, out_features=30, bias=True)
              (drop): Dropout(p=0.0, inplace=False)
            )
          )
          (2): SwinTransformerBlock(
            dim=30, input_resolution=(64, 64), num_heads=6, window_size=8, shift_size=0, mlp_ratio=2
            (norm1): LayerNorm((30,), eps=1e-05, elementwise_affine=True)
            (attn): WindowAttention(
              dim=30, window_size=(8, 8), num_heads=6
              (qkv): Linear(in_features=30, out_features=90, bias=True)
              (attn_drop): Dropout(p=0.0, inplace=False)
              (proj): Linear(in_features=30, out_features=30, bias=True)
              (proj_drop): Dropout(p=0.0, inplace=False)
              (softmax): Softmax(dim=-1)
            )
            (drop_path): DropPath()
            (norm2): LayerNorm((30,), eps=1e-05, elementwise_affine=True)
            (mlp): Mlp(
              (fc1): Linear(in_features=30, out_features=60, bias=True)
              (act): GELU(approximate=none)
              (fc2): Linear(in_features=60, out_features=30, bias=True)
              (drop): Dropout(p=0.0, inplace=False)
            )
          )
          (3): SwinTransformerBlock(
            dim=30, input_resolution=(64, 64), num_heads=6, window_size=8, shift_size=4, mlp_ratio=2
            (norm1): LayerNorm((30,), eps=1e-05, elementwise_affine=True)
            (attn): WindowAttention(
              dim=30, window_size=(8, 8), num_heads=6
              (qkv): Linear(in_features=30, out_features=90, bias=True)
              (attn_drop): Dropout(p=0.0, inplace=False)
              (proj): Linear(in_features=30, out_features=30, bias=True)
              (proj_drop): Dropout(p=0.0, inplace=False)
              (softmax): Softmax(dim=-1)
            )
            (drop_path): DropPath()
            (norm2): LayerNorm((30,), eps=1e-05, elementwise_affine=True)
            (mlp): Mlp(
              (fc1): Linear(in_features=30, out_features=60, bias=True)
              (act): GELU(approximate=none)
              (fc2): Linear(in_features=60, out_features=30, bias=True)
              (drop): Dropout(p=0.0, inplace=False)
            )
          )
          (4): SwinTransformerBlock(
            dim=30, input_resolution=(64, 64), num_heads=6, window_size=8, shift_size=0, mlp_ratio=2
            (norm1): LayerNorm((30,), eps=1e-05, elementwise_affine=True)
            (attn): WindowAttention(
              dim=30, window_size=(8, 8), num_heads=6
              (qkv): Linear(in_features=30, out_features=90, bias=True)
              (attn_drop): Dropout(p=0.0, inplace=False)
              (proj): Linear(in_features=30, out_features=30, bias=True)
              (proj_drop): Dropout(p=0.0, inplace=False)
              (softmax): Softmax(dim=-1)
            )
            (drop_path): DropPath()
            (norm2): LayerNorm((30,), eps=1e-05, elementwise_affine=True)
            (mlp): Mlp(
              (fc1): Linear(in_features=30, out_features=60, bias=True)
              (act): GELU(approximate=none)
              (fc2): Linear(in_features=60, out_features=30, bias=True)
              (drop): Dropout(p=0.0, inplace=False)
            )
          )
          (5): SwinTransformerBlock(
            dim=30, input_resolution=(64, 64), num_heads=6, window_size=8, shift_size=4, mlp_ratio=2
            (norm1): LayerNorm((30,), eps=1e-05, elementwise_affine=True)
            (attn): WindowAttention(
              dim=30, window_size=(8, 8), num_heads=6
              (qkv): Linear(in_features=30, out_features=90, bias=True)
              (attn_drop): Dropout(p=0.0, inplace=False)
              (proj): Linear(in_features=30, out_features=30, bias=True)
              (proj_drop): Dropout(p=0.0, inplace=False)
              (softmax): Softmax(dim=-1)
            )
            (drop_path): DropPath()
            (norm2): LayerNorm((30,), eps=1e-05, elementwise_affine=True)
            (mlp): Mlp(
              (fc1): Linear(in_features=30, out_features=60, bias=True)
              (act): GELU(approximate=none)
              (fc2): Linear(in_features=60, out_features=30, bias=True)
              (drop): Dropout(p=0.0, inplace=False)
            )
          )
        )
      )
      (conv): Conv2d(30, 30, kernel_size=(3, 3), stride=(1, 1), padding=(1, 1))
      (patch_embed): PatchEmbed()
      (patch_unembed): PatchUnEmbed()
    )
    (1): RSTB(
      (residual_group): BasicLayer(
        dim=30, input_resolution=(64, 64), depth=6
        (blocks): ModuleList(
          (0): SwinTransformerBlock(
            dim=30, input_resolution=(64, 64), num_heads=6, window_size=8, shift_size=0, mlp_ratio=2
            (norm1): LayerNorm((30,), eps=1e-05, elementwise_affine=True)
            (attn): WindowAttention(
              dim=30, window_size=(8, 8), num_heads=6
              (qkv): Linear(in_features=30, out_features=90, bias=True)
              (attn_drop): Dropout(p=0.0, inplace=False)
              (proj): Linear(in_features=30, out_features=30, bias=True)
              (proj_drop): Dropout(p=0.0, inplace=False)
              (softmax): Softmax(dim=-1)
            )
            (drop_path): DropPath()
            (norm2): LayerNorm((30,), eps=1e-05, elementwise_affine=True)
            (mlp): Mlp(
              (fc1): Linear(in_features=30, out_features=60, bias=True)
              (act): GELU(approximate=none)
              (fc2): Linear(in_features=60, out_features=30, bias=True)
              (drop): Dropout(p=0.0, inplace=False)
            )
          )
          (1): SwinTransformerBlock(
            dim=30, input_resolution=(64, 64), num_heads=6, window_size=8, shift_size=4, mlp_ratio=2
            (norm1): LayerNorm((30,), eps=1e-05, elementwise_affine=True)
            (attn): WindowAttention(
              dim=30, window_size=(8, 8), num_heads=6
              (qkv): Linear(in_features=30, out_features=90, bias=True)
              (attn_drop): Dropout(p=0.0, inplace=False)
              (proj): Linear(in_features=30, out_features=30, bias=True)
              (proj_drop): Dropout(p=0.0, inplace=False)
              (softmax): Softmax(dim=-1)
            )
            (drop_path): DropPath()
            (norm2): LayerNorm((30,), eps=1e-05, elementwise_affine=True)
            (mlp): Mlp(
              (fc1): Linear(in_features=30, out_features=60, bias=True)
              (act): GELU(approximate=none)
              (fc2): Linear(in_features=60, out_features=30, bias=True)
              (drop): Dropout(p=0.0, inplace=False)
            )
          )
          (2): SwinTransformerBlock(
            dim=30, input_resolution=(64, 64), num_heads=6, window_size=8, shift_size=0, mlp_ratio=2
            (norm1): LayerNorm((30,), eps=1e-05, elementwise_affine=True)
            (attn): WindowAttention(
              dim=30, window_size=(8, 8), num_heads=6
              (qkv): Linear(in_features=30, out_features=90, bias=True)
              (attn_drop): Dropout(p=0.0, inplace=False)
              (proj): Linear(in_features=30, out_features=30, bias=True)
              (proj_drop): Dropout(p=0.0, inplace=False)
              (softmax): Softmax(dim=-1)
            )
            (drop_path): DropPath()
            (norm2): LayerNorm((30,), eps=1e-05, elementwise_affine=True)
            (mlp): Mlp(
              (fc1): Linear(in_features=30, out_features=60, bias=True)
              (act): GELU(approximate=none)
              (fc2): Linear(in_features=60, out_features=30, bias=True)
              (drop): Dropout(p=0.0, inplace=False)
            )
          )
          (3): SwinTransformerBlock(
            dim=30, input_resolution=(64, 64), num_heads=6, window_size=8, shift_size=4, mlp_ratio=2
            (norm1): LayerNorm((30,), eps=1e-05, elementwise_affine=True)
            (attn): WindowAttention(
              dim=30, window_size=(8, 8), num_heads=6
              (qkv): Linear(in_features=30, out_features=90, bias=True)
              (attn_drop): Dropout(p=0.0, inplace=False)
              (proj): Linear(in_features=30, out_features=30, bias=True)
              (proj_drop): Dropout(p=0.0, inplace=False)
              (softmax): Softmax(dim=-1)
            )
            (drop_path): DropPath()
            (norm2): LayerNorm((30,), eps=1e-05, elementwise_affine=True)
            (mlp): Mlp(
              (fc1): Linear(in_features=30, out_features=60, bias=True)
              (act): GELU(approximate=none)
              (fc2): Linear(in_features=60, out_features=30, bias=True)
              (drop): Dropout(p=0.0, inplace=False)
            )
          )
          (4): SwinTransformerBlock(
            dim=30, input_resolution=(64, 64), num_heads=6, window_size=8, shift_size=0, mlp_ratio=2
            (norm1): LayerNorm((30,), eps=1e-05, elementwise_affine=True)
            (attn): WindowAttention(
              dim=30, window_size=(8, 8), num_heads=6
              (qkv): Linear(in_features=30, out_features=90, bias=True)
              (attn_drop): Dropout(p=0.0, inplace=False)
              (proj): Linear(in_features=30, out_features=30, bias=True)
              (proj_drop): Dropout(p=0.0, inplace=False)
              (softmax): Softmax(dim=-1)
            )
            (drop_path): DropPath()
            (norm2): LayerNorm((30,), eps=1e-05, elementwise_affine=True)
            (mlp): Mlp(
              (fc1): Linear(in_features=30, out_features=60, bias=True)
              (act): GELU(approximate=none)
              (fc2): Linear(in_features=60, out_features=30, bias=True)
              (drop): Dropout(p=0.0, inplace=False)
            )
          )
          (5): SwinTransformerBlock(
            dim=30, input_resolution=(64, 64), num_heads=6, window_size=8, shift_size=4, mlp_ratio=2
            (norm1): LayerNorm((30,), eps=1e-05, elementwise_affine=True)
            (attn): WindowAttention(
              dim=30, window_size=(8, 8), num_heads=6
              (qkv): Linear(in_features=30, out_features=90, bias=True)
              (attn_drop): Dropout(p=0.0, inplace=False)
              (proj): Linear(in_features=30, out_features=30, bias=True)
              (proj_drop): Dropout(p=0.0, inplace=False)
              (softmax): Softmax(dim=-1)
            )
            (drop_path): DropPath()
            (norm2): LayerNorm((30,), eps=1e-05, elementwise_affine=True)
            (mlp): Mlp(
              (fc1): Linear(in_features=30, out_features=60, bias=True)
              (act): GELU(approximate=none)
              (fc2): Linear(in_features=60, out_features=30, bias=True)
              (drop): Dropout(p=0.0, inplace=False)
            )
          )
        )
      )
      (conv): Conv2d(30, 30, kernel_size=(3, 3), stride=(1, 1), padding=(1, 1))
      (patch_embed): PatchEmbed()
      (patch_unembed): PatchUnEmbed()
    )
  )
  (norm): LayerNorm((30,), eps=1e-05, elementwise_affine=True)
  (conv_after_body): Conv2d(30, 30, kernel_size=(3, 3), stride=(1, 1), padding=(1, 1))
  (upsample): UpsampleOneStep(
    (0): Conv2d(30, 12, kernel_size=(3, 3), stride=(1, 1), padding=(1, 1))
    (1): PixelShuffle(upscale_factor=2)
  )
)

22-11-05 02:21:11.923 : 
 |  mean  |  min   |  max   |  std   || shape               
 |  0.003 | -0.191 |  0.192 |  0.109 | torch.Size([30, 3, 3, 3]) || conv_first.weight
 |  0.056 | -0.189 |  0.192 |  0.098 | torch.Size([30]) || conv_first.bias
 |  1.000 |  1.000 |  1.000 |  0.000 | torch.Size([30]) || patch_embed.norm.weight
…
